checkpoints/pavia/classifier.pth (torch, 9612 bytes, 2 tensors)

classifier.0.weight f4 [7, 288]
000000 f0 5b 24 3e 25 77 2b 3d d1 ba 1a 3d c4 0d 5b bc
       0.16050696 0.041861672 0.03777582 -0.013369981
000010 45 75 b5 bd c5 78 d1 3d 9f 49 98 3d 2a 9e a0 bc
       -0.08860258 0.10228113 0.07435917 -0.019606669
000020 10 f9 c9 bc 4f 33 f7 bc db 16 14 3e 76 b7 75 bd
       -0.024654895 -0.030175833 0.14461844 -0.059989415
000030 91 c9 f0 bc 63 c1 7c bd d7 3b 45 bd df b4 92 bd
       -0.02939299 -0.061707865 -0.04815277 -0.07163405
000040 4b 6a 6a 3d 9f 36 47 3d 59 5f 3a 3a 46 2a 4f bd
       0.057230275 0.048636075 0.0007109545 -0.050577424
000050 30 3e c4 bc 53 3c 1d 3c f6 08 e6 bc df 0c 87 3c
       -0.023955435 0.009596902 -0.028080445 0.01648563
000060 9c 3a d8 3b 84 63 fd 3c cb d1 2a bd d7 1b a4 bd
       0.0065987837 0.030931242 -0.04170398 -0.080131225
000070 8d b8 16 bc fd 48 4e 3e 63 ef 1b 3e 0e 8d bb bd
       -0.009199274 0.2014503 0.15228038 -0.091577634
000080 c7 86 c4 3d b0 e3 26 3d 89 c9 2e bd 6d 40 9e 3c
       0.09596019 0.040744483 -0.042672668 0.01931783
000090 df 6c 39 bd 54 c2 ab bd 27 bb 29 bc 51 f6 3c bd
       -0.045269843 -0.083866745 -0.010359562 -0.046133343
0000a0 93 71 ec bc 49 cb 50 3e 99 39 18 3e ef 99 23 bc
       -0.02886275 0.20390047 0.14865722 -0.009985431
0000b0 c1 4d a2 bd d5 6e 0b bd 57 dc 7f bd 99 1b 43 bd
       -0.07924987 -0.034041245 -0.06246599 -0.04763374
0000c0 8c 90 e8 3c f0 e2 66 3d c3 9b 8c bd 2e d3 6c bd
       0.028389238 0.05636877 -0.06865647 -0.057818584
0000d0 5b 97 32 bd ce 85 28 bd 60 85 9e bd 14 f0 0b bd
       -0.043601375 -0.04114323 -0.07740283 -0.034164503
0000e0 a0 31 76 bc fe ee 3e 3c cd cd 0d bd c2 9a db 3d
       -0.01502648 0.01165366 -0.034620095 0.10722877
0000f0 f8 2f de 3d 15 18 81 3c aa 52 ae 3e 22 84 0b bd
       0.10848993 0.015758554 0.34047443 -0.03406156
000100 bb d9 86 3b fd 08 b9 3c 46 71 16 3e cb 36 b9 bd
       0.004115311 0.022587294 0.14691648 -0.09043654
000110 62 57 a7 bb d4 29 82 bc 91 14 a2 bc 79 56 68 bd
       -0.0051068524 -0.015889086 -0.019785197 -0.05672309
000120 68 72 8d 3b 02 21 68 bd 2b 87 8c bd 38 be 8c 3e
       0.004316617 -0.056672104 -0.06861719 0.27488875
000130 d3 e0 19 3b d9 5a 8e 3e e3 2b 88 bd 13 6a c2 3c
       0.0023479953 0.27803686 -0.06648996 0.02373222
000140 d5 fb f4 bc e3 83 ab bd 5a 19 9e bd bd 6e 1a bd
       -0.02990524 -0.08374765 -0.07719679 -0.037703265
000150 93 85 98 bd 48 b3 83 3e d6 54 61 bc 5d 8a 46 bd
       -0.07447352 0.25722718 -0.013753137 -0.048471797
000160 75 ac 0b bd c0 ac ee 3d f8 63 9e bd 19 a1 a0 bd
       -0.034100015 0.11654043 -0.07733911 -0.07843227
000170 1b fc 09 bd b6 2d 62 bd 41 db e3 3d 3e 07 3f 3c
       -0.033687692 -0.055219375 0.11125804 0.0116594415
000180 cb 5c 7c bd 12 f9 4a bd 4c 98 c5 3d 46 ea ca 3d
       -0.06161193 -0.04955394 0.09648189 0.09907965
000190 c7 cf 3c 3b 7b ed fc bc 18 f3 fa 3c 30 1c c7 bd
       0.0028810368 -0.030874958 0.030633494 -0.09722173
0001a0 ce b0 de bc 5c 73 33 3e fd 8c 14 3c 79 dd 78 3d
       -0.027183916 0.17524475 0.009066817 0.060758088
0001b0 21 9c a1 3b 27 ed 10 3d 24 7b 9a 3b 15 12 b8 bd
       0.004931942 0.035382416 0.0047143865 -0.08987824
0001c0 51 00 4c 3c df 3b 78 3e 93 4e 5e bb 34 fb 8a bd
       0.012451247 0.24241589 -0.0033921346 -0.067861944
0001d0 e0 2c d7 3c 3e bf 12 be f6 e0 6b bd 5e a2 d2 bd
       0.026266515 -0.14330766 -0.057587586 -0.10284875
0001e0 0d 52 12 bc e6 17 05 3e 62 f1 65 bc 34 82 8d 3d
       -0.008930695 0.12997398 -0.014034601 0.069096
0001f0 81 64 72 bd c7 ca 76 bd 30 71 5a bb 74 5a 27 bd
       -0.05917788 -0.060251977 -0.0033331625 -0.040857747
000200 07 c3 b5 bd 09 a2 6d 3d c2 da 17 be df 7b 82 bc
       -0.08875089 0.058015857 -0.14829543 -0.015928207
000210 ad a1 39 3e 3b 65 0d 3d 2e 39 84 bd b2 4c 2d 3d
       0.1812808 0.03452037 -0.06456219 0.04230947
000220 92 29 cb bc cc 74 8c bd d1 43 d3 bc 01 85 fd 3d
       -0.024800096 -0.06858215 -0.025789173 0.12378884
000230 f5 59 2b 3d f0 61 80 bd b4 ff d1 bd 27 46 2d 3d
       0.041833837 -0.0626868 -0.102538496 0.04230323
000240 02 1e 05 bd e2 52 27 bd 71 f2 3e bd a8 1b 1d bd
       -0.03249932 -0.040850528 -0.04661793 -0.038356453
000250 1e 43 24 bd 22 0c a4 bc 4e 54 da bc 60 c9 ed bd
       -0.04010307 -0.020025317 -0.026651528 -0.11610675
000260 5b 53 2d 3d 79 54 36 be 55 a3 9e 3d 5a dc f5 3b
       0.042315822 -0.17805661 0.07745997 0.0075030746
000270 84 b4 b2 bc 95 dd dd 3a ab 18 a6 3d 42 b2 9a bd
       -0.021814592 0.0016926999 0.08110174 -0.07553531
000280 e3 a2 df 3b 0d 4c 00 be 5d 52 cd 3e d3 df ae bc
       0.0068248375 -0.12529011 0.401019 -0.021346962
000290 e7 b2 a9 3e 5c 22 e2 3d d4 86 cf 3c 4b ed 02 bd
       0.33144304 0.1104171 0.025332846 -0.03196458
0002a0 64 85 72 bd 94 41 ba bc 22 9e 4b bd dd 03 62 bd
       -0.059209242 -0.022736348 -0.049711354 -0.055179466
0002b0 ea e4 89 bd 89 4a c0 bc 92 65 0e 3c b3 77 12 3e
       -0.06733115 -0.023473041 0.008691208 0.14303474
0002c0 8e fb 91 3c a7 b1 87 bc f5 ae bf bd a0 14 7e 3e
       0.017820146 -0.016564203 -0.09359542 0.24812555
0002d0 92 66 a3 3d c8 00 20 3c bd 53 7a 3b 77 1e d5 bc
       0.07978548 0.009765811 0.0038196885 -0.026015503
0002e0 a0 d3 51 3d b5 58 c4 bb 38 08 1d 3d 23 c3 d4 3c
       0.051227212 -0.00599202 0.038337916 0.025971955
0002f0 da 6c 61 3d 06 e6 99 3d e1 26 bc bd 47 94 94 bd
       0.05503545 0.075145766 -0.09187103 -0.07254844
000300 96 c7 5b 3d 93 64 b9 bd 78 84 19 bd f8 c3 96 bd
       0.053657137 -0.09052386 -0.037479848 -0.07361597
000310 42 d7 32 be 40 e1 7f bd 5a bf 4a bc e2 95 57 3d
       -0.17464927 -0.062470675 -0.012374723 0.052633174
000320 0c 0b 60 3d 84 c1 a4 bb b6 39 84 bd 2d 73 70 be
       0.054698035 -0.0050279517 -0.0645632 -0.23481436
000330 09 ec da 3d f4 f2 49 3d 51 ce fd 3c b4 be a0 bd
       0.106895514 0.049303964 0.030982168 -0.07848874
000340 16 72 31 be 9b 39 a7 3e d4 60 92 3b 81 87 62 3e
       -0.17328677 0.32661137 0.004467109 0.22122003
000350 d1 1e dd 3c e9 7a 46 bd 8d 93 54 bc 97 8a ec 3b
       0.026992233 -0.04845706 -0.012974632 0.0072186696
000360 9c 08 68 bd 03 f0 33 bd d8 75 36 bd e9 45 2f bd
       -0.056648836 -0.043930065 -0.04454598 -0.04279128
000370 a5 43 0c bd 96 7b 8e bd b7 91 ee bc f6 f6 86 bd
       -0.0342442 -0.06957166 -0.029122217 -0.06590073
000380 16 4a f8 bc f1 d1 4d 3d 7b fa 5f 3c 8d 0c 83 3d
       -0.030308764 0.050249044 0.013670559 0.06398878
000390 57 ca de 3d 5c 78 b1 3d 98 78 ae bd b3 87 42 3c
       0.10878437 0.08665535 -0.08519095 0.0118731735
0003a0 64 a7 3f 3c d9 2f 88 3c 4e 7a f8 bb cd 2e 04 be
       0.011697624 0.016624378 -0.007582939 -0.12908478
0003b0 87 11 a6 bd cb c2 ca 3c 0f b5 16 3d fa 38 1d bd
       -0.08108812 0.024751088 0.036793765 -0.038384415
0003c0 be 38 ad 3c d5 d0 57 3d 32 52 c7 bd 84 b4 22 3e
       0.02114522 0.052689392 -0.097324744 0.15889174
0003d0 58 7e a7 bd 4f 0b 73 bd 65 92 9a bd ae aa 77 3d
       -0.08178395 -0.059336957 -0.07547454 0.060465507
0003e0 c4 7f e6 3d 18 d2 51 bd 8c b9 02 be 94 20 4d 3c
       0.11254838 -0.05122575 -0.12766093 0.012519974
0003f0 8d 38 75 bb 9f a9 ca bc 5e 2d 0b bd 07 eb 6b bd
       -0.003741774 -0.024739085 -0.033978812 -0.057597186

classifier.0.bias f4 [7]
000000 bf 43 e6 bd 73 7e b6 3d be 0d af 3c d8 15 31 bd
       -0.1124339 0.08910837 0.021368857 -0.043233722
000010 9b c0 9b be 8c 22 23 3e d8 33 a1 3d
       -0.30420384 0.15931147 0.078712165
