checkpoints/houston/classifier.pth (torch, 9612 bytes, 2 tensors)

classifier.0.weight f4 [7, 288]
0	0xbb875cf0	-0.004130952
1	0xbdf26921	-0.11836458
2	0xbe25422e	-0.16138527
3	0xbdaab4c8	-0.083352625
4	0xbd9c992a	-0.07646401
5	0xb9c33ab5	-0.00037237038
6	0xbe388b72	-0.18021944
7	0x3e797140	0.24359608
8	0xbd880141	-0.06640864
9	0x3d9754be	0.0738921
10	0x3db223e5	0.086982526
11	0xbe874b1e	-0.26424497
12	0x3ccdd354	0.025125183
13	0x3e2c1e40	0.16808414
14	0xbd8f2b3c	-0.06990668
15	0xbe057f27	-0.13036786
16	0xbca74111	-0.020416768
17	0xbe0650b3	-0.13116722
18	0x3d58f55a	0.05296836
19	0xbe2bdaca	-0.1678268
20	0x3e12db09	0.14341368
21	0x3e8ca475	0.2746922
22	0xbd1bd1ec	-0.038041994
23	0xbcd94656	-0.026522797
24	0x3e3055fc	0.172203
25	0xbdda2c71	-0.10653008
26	0xbcea23d3	-0.028581535
27	0xbdaec14c	-0.08532962
28	0xbd3ec957	-0.04657873
29	0xbe3b486b	-0.18289344
30	0xbd6b7253	-0.057482075
31	0x3c2e2dd4	0.010631043
32	0x3e36d656	0.178552
33	0xbdd86f25	-0.10568074
34	0xbe34be37	-0.17650686
35	0xbe31af8d	-0.17352124
36	0x3eb3145a	0.34976465
37	0xbdee4db4	-0.116359144
38	0x3d8b2400	0.06793976
39	0xbc9c4618	-0.019076392
40	0xbe13deae	-0.14440414
41	0xbf1a62bd	-0.6030691
42	0xbeb43eca	-0.35204154
43	0xbe49a711	-0.19692637
44	0x3cd6d123	0.026222771
45	0xbe08a41c	-0.13343853
46	0x3d7a4a33	0.06110592
47	0xbe097c8d	-0.13426419
48	0xbe7154d4	-0.23567516
49	0x3daa89e6	0.08327083
50	0xbe116880	-0.1420002
51	0xbe2ddeb8	-0.16979492
52	0x3d3944ea	0.045231737
53	0xbe160e21	-0.14653827
54	0xbdba42d3	-0.09094777
55	0xbe6a7d4b	-0.22899358
56	0x3e246169	0.16052784
57	0x3e7fadde	0.24968669
58	0xbca8dc84	-0.020612963
59	0xbe7f650b	-0.24940889
60	0xbdf160b0	-0.1178602
61	0x3e5e9f0b	0.21740358
62	0x3df72ad0	0.12068713
63	0x3ebfe2cd	0.37477723
64	0x3dea379d	0.11436389
65	0xbd91c5ec	-0.07117829
66	0xbd0efd17	-0.034909334
67	0xbd1d0ec2	-0.038344152
68	0xbcadd33b	-0.021218887
69	0x3d9a6fd7	0.07540863
70	0xbc878916	-0.01654486
71	0x3dd4f6e7	0.103986554
72	0x3df42d66	0.119227216
73	0x3f3a263d	0.72714597
74	0xbf0e142e	-0.5549954
75	0x3e574ffa	0.21026602
76	0xbdbeb3e6	-0.09311657
77	0x3c54fb7b	0.012999411
78	0x3f1b12e8	0.60575724
79	0x3f661187	0.89870495
80	0x3c0f7e3d	0.008758125
81	0xbdaeb85f	-0.0853126
82	0x3dd9aebf	0.10629033
83	0xbe02e195	-0.12781365
84	0xbe30e3aa	-0.17274347
85	0xbafdd3d4	-0.0019365498
86	0x3e5a8e44	0.21343333
87	0xbdbaac50	-0.09114897
88	0x3d6f64b0	0.058445632
89	0xbde99c0c	-0.11406717
90	0x3e11674f	0.14199565
91	0xbd99c75e	-0.075087294
92	0xbe118d28	-0.14214003
93	0xbdf45774	-0.11930743
94	0xbd9d92a7	-0.07693987
95	0x3be07e57	0.0068509984
96	0xbd9a843f	-0.07544755
97	0xbdc19cf2	-0.09453763
98	0xbdc6c952	-0.097063676
99	0xbe0ca245	-0.13733776
100	0x3da43349	0.08017594
101	0xbd5980bc	-0.053101286
102	0xbda9536c	-0.082678646
103	0xbc8a7640	-0.01690209
104	0xbe3d25b8	-0.1847142
105	0xbc86ea43	-0.016469127
106	0x3e72aa61	0.23697807
107	0xbe3f14cd	-0.18660279
108	0x3c18d5eb	0.009328346
109	0xbdc300dd	-0.09521649
110	0x3e481c8c	0.1954214
111	0xbc351c4c	-0.01105411
112	0xbd265539	-0.04060862
113	0xbd36d0be	-0.044632666
114	0xbc01ec9c	-0.007929947
115	0xbe1ae37c	-0.15125841
116	0xbde0a770	-0.10969436
117	0xbdc1ca14	-0.094623715
118	0x3d38ab2a	0.04508511
119	0x3d7782ff	0.060427662
120	0x3e5a3a1d	0.21311231
121	0x3f0d7bf6	0.55267274
122	0x3df5c17b	0.11999794
123	0xbeb2c567	-0.3491623
124	0xbda9177c	-0.082564324
125	0x3d939a5c	0.07207176
126	0xbdcac517	-0.09900873
127	0xbd761488	-0.060078174
128	0x39cfd5fc	0.00039641547
129	0xbd1c0231	-0.038088027
130	0xbd6d97be	-0.05800604
131	0xbd7071cd	-0.05870228
132	0x3d0f9233	0.035051536
133	0xbdc7cb32	-0.09755553
134	0xbcef10cd	-0.029182816
135	0x3e864772	0.26226383
136	0x3b751b3c	0.0037400266
137	0x3c4782cf	0.012177183
138	0xbd9c2aa1	-0.07625318
139	0x3e36e5a5	0.1786104
140	0xbe1600d5	-0.14648755
141	0x3ea77423	0.32705793
142	0xbd9b5583	-0.075846694
143	0x3c9497f1	0.018138858
144	0x3c09a916	0.00840213
145	0xbcd7cb3d	-0.026342029
146	0xbd9ef1ca	-0.07760961
147	0x3d823c62	0.06359173
148	0xbe408d0d	-0.18803807
149	0xbcb2b6a7	-0.021815611
150	0xbd42753e	-0.047475092
151	0x3dd38021	0.10327173
152	0xbeb72a58	-0.35774493
153	0xbee174d7	-0.44034454
154	0x3cebea55	0.028798262
155	0x3d54ee39	0.051985
156	0xbd97e747	-0.074171595
157	0xbd4f4913	-0.0506068
158	0xbdb2278d	-0.0869895
159	0x3e1b169c	0.15145344
160	0x3e02b5df	0.12764691
161	0xbd935aa8	-0.07195026
162	0x3a90fdf7	0.0011062016
163	0xbe207e1a	-0.15673104
164	0x3d1d2d6f	0.038373407
165	0x3e76829c	0.24073261
166	0xbd3177f5	-0.04332729
167	0xbd19f789	-0.037589584
168	0xbe4ba251	-0.19886138
169	0xbe0d7c1a	-0.13816872
170	0x3e5ac6be	0.21364877
171	0xbd6542f7	-0.055972066
172	0xbde229f8	-0.11043161
173	0x3e992fe5	0.29919353
174	0xbdbdb881	-0.09263707
175	0x3e7fd375	0.24983008
176	0xbac16bf8	-0.0014756909
177	0xbe99eb3d	-0.30062285
178	0x3ea18445	0.31546226
179	0xbdeeebb8	-0.116660535
180	0xbdcd1295	-0.1001331
181	0xbe29a08a	-0.16565147
182	0x3be8ffc0	0.007110566
183	0x3d7ac496	0.061222635
184	0xbcdc939c	-0.026925854
185	0xbd6d04b8	-0.05786583
186	0xbe5afae0	-0.21384764
187	0xbe3fcaf0	-0.18729758
188	0x3c0d4909	0.00862337
189	0xbdfaf192	-0.12253107
190	0xbdc080df	-0.0939958
191	0x3e831456	0.25601453
192	0xbe0687c5	-0.1313773
193	0xbe28804e	-0.16455194
194	0xbd264dab	-0.040601414
195	0xbc1260b8	-0.008934192
196	0x3e6680a9	0.22510017
197	0xbe5b7d3b	-0.2143449
198	0xbda9d2d4	-0.082921654
199	0xbda560f6	-0.080751345
200	0x3e006175	0.12537177
201	0xbaca9c93	-0.001545804
202	0xbd575b82	-0.052577503
203	0xbd94b86c	-0.07261738
204	0x3af2386d	0.0018479951
205	0xbd805a3f	-0.06267213
206	0xbe0812b9	-0.13288392
207	0xbddd4b2d	-0.10805354
208	0xbe1f1fa4	-0.15539414
209	0xbd9e0301	-0.07715417
210	0x3e386adf	0.18009518
211	0xbd59be3a	-0.05315993
212	0xbd63a58f	-0.05557781
213	0xbcc10c86	-0.023565542
214	0xbcd9c63c	-0.026583783
215	0xbdde0511	-0.1084081
216	0xbc0c175e	-0.008550493
217	0xbe499ee0	-0.19689512
218	0xbdedbc51	-0.11608184
219	0xbd19c2a4	-0.03753914
220	0xbe2b1602	-0.16707614
221	0xbdd551f8	-0.10416025
222	0xbe64deab	-0.22350566
223	0xbd5b5731	-0.05354995
224	0x3be74b98	0.007058572
225	0xbdb1e1c0	-0.086856365
226	0xbdf89ff5	-0.121398844
227	0x3ea67946	0.325144
228	0x3ccc92ac	0.024972282
229	0xbddec94c	-0.10878238
230	0xbbc97c1a	-0.0061488273
231	0xbd959b52	-0.073050156
232	0xbdbd742d	-0.092506744
233	0x3e5e4b6c	0.21708459
234	0xbdb04d4e	-0.08608495
235	0xbc93ffa4	-0.018066235
236	0xbb4eb386	-0.003154011
237	0xbe47dd09	-0.19517912
238	0xbd38ef4d	-0.04515009
239	0xbdf66761	-0.12031437
240	0x3dc6c0c6	0.09704737
241	0xbc9f1d60	-0.019423187
242	0xbc1526c7	-0.0091034835
243	0x3de7121f	0.11282753
244	0xbd86d4ab	-0.06583532
245	0xbd3a8f0e	-0.045546584
246	0xbd3dc488	-0.046330005
247	0xba44c31b	-0.00075058796
248	0x3c9101e1	0.017701091
249	0xbd6793d2	-0.056537457
250	0x3e15a897	0.14615093
251	0x3bb466b2	0.0055054063
252	0xbc1dd385	-0.00963295
253	0xbd344f0f	-0.04402071
254	0xbc0b0789	-0.008485683
255	0xbe432045	-0.19055279

classifier.0.bias f4 [7]
0	0xbeacb2ea	-0.3373025
1	0x3ebb2582	0.36552054
2	0x3e030b7e	0.12797353
3	0xbef4c64a	-0.47807533
4	0x3db0d8a2	0.086350694
5	0x3deb6504	0.114938766
6	0x3ce4b0af	0.02791628
