checkpoints/shanghai-hangzhou/classifier.pth (torch, 9612 bytes, 2 tensors)

classifier.0.weight f4 [7, 288]
00000000: c35b 5e3d c44c e2bb 27f1 353e a216 3b3d
00000010: e784 38bd 7cbd fcbc c461 4c3d fc8c 0d3b
00000020: 90ff 83bd ac9a 58bd f14b 49bd 7c42 85bd
00000030: 6e79 db3c f9a7 dfbc 25bd bd3d 5485 daba
00000040: 0686 373e 900b 52bc 67ea 22bd 8cf0 dc3d
00000050: b480 82bc 1b96 c9bc eea8 f83d 9fe1 c4bb
00000060: 2ce9 e53d 14bd 65bd 8b27 4abc bd64 47bc
00000070: 756f 2a3e 5cba 71bd fa5e 0f3e 504d 063e
00000080: 132a 4c3c 35f5 d53d 2e36 393d f38a 28bd
00000090: 5afd 14bc 1a23 d5bd 5771 b9bd 9b76 173e
000000a0: 091c b9bd 7ce6 eb3d 20a8 86bc 0555 e63d
000000b0: f74f 7b3d c716 8fbd 4d4b 863c 81b1 dd3c
000000c0: 96dd 073d 1fe8 383e 08db d6bd 414c b5bd
000000d0: 6e18 223c 3d56 d2bb 94bc a3bd 1f30 6abd
000000e0: cf6b 6138 9177 12bd ef1c c13d f366 8dba
000000f0: e4bd 11bd f675 88bc 12ad be3d 528b 153e
00000100: 39bf 3abc bcc0 da3b 5761 8d3d 350f 613c
00000110: e0c7 8bbd 8173 bbbd 6edd 34bd 6924 073e
00000120: 47f7 8e3d 8ce6 8dbd 4cb7 ea3b 8d67 30bc
00000130: ff66 84bd 0589 ff3d b3e8 86bd 113c 183b
00000140: d6d2 e03c 02a1 e73d 2c40 b9bc 87cf 3dbd
00000150: 0c53 b4bd b4ae e73d 5a6f b4bd a8c8 4f3d
00000160: 3678 0c3d 6c21 a63c cea5 5a3e 8766 a53b
00000170: eacd d93d 2937 04bd fba0 363c 56a3 8eb9
00000180: d78b c6bd 224e 893c 7d75 63bd 5884 d9bb
00000190: 817a 7f3d e1eb c63d 360d 663e ff87 0dbd
000001a0: 9046 bcbc 3aaa 383d 9099 18bd eebe 66bd
000001b0: a066 8b3a 71ee 1a3e af52 a43c 3156 a0bc
000001c0: 8876 55bd 6750 36bd 8339 8bbd c26e f33a
000001d0: 12ed 473d 5ee3 35bd 3ca8 1cbd e778 d93c
000001e0: 0300 5b3d f324 b1bd ec5e 38bd 317f 9bbd
000001f0: c385 d33d 86c0 013d 3185 c3bc b787 dabc
00000200: 5c8e 9f3d cdf8 ca3b bc15 523c 7171 c3bd
00000210: 2e18 a7bd a2ce aabd 2e39 f1bc c91b 2ebd
00000220: 4287 34bd f556 53bd e06b 54bd 3c46 f4bc
00000230: 74c2 c5bc 8869 a93c 710d c53c af29 58bd
00000240: ced8 77bd 765e 7cbd 99e5 c03d dc85 86bc
00000250: 58f0 243e 9240 dbba e383 e63b 487a a5bc
00000260: 738d bbbc 1b95 c93d d122 84bd 4cde 363d
00000270: ffbf 3ebd 66a4 cc3d deb9 2ebd b1fa 9f3d
00000280: d024 a5bd c4c7 8abd 6cdf 8b3b 6ed6 9bbd
00000290: a0f8 153e 13cd 2bbd 4296 ce3d 7abf d0bd
000002a0: d521 f03c 4e33 96bd f1cd 883c 6123 c83b
000002b0: 03d8 c4bd 0226 33bd 28ac c7bd 0631 f8bc
000002c0: e690 77bd 0647 8ebd e9cf 9ebd c020 23bd
000002d0: 4b70 e5bc 0d8a a13d 606b 4bbd 6570 7dba
000002e0: 42db 8c3d 2e60 6dbd 9822 c0bc f496 64bd
000002f0: 717c a9bd 3710 853d 143f b53c 0952 cd3d
00000300: 0946 1a3e 59f0 473e 5e4a 2cbd 3e39 3dbc
00000310: 52a3 a9bd 81ce 1b3e 3e90 d53d 4c48 1a3d
00000320: 5801 2a3e faa8 98bd ac03 a93d 79f6 00bd
00000330: b2c6 d43d 8670 10bd 730e 8b3d 0be3 973d
00000340: 37ba 2f3d f9f8 7abd 964d 413d a1c0 e63d
00000350: 07ea 3a3e 046f ce3d 9e8c ecbc 92ba 5dbd
00000360: a588 2f3e 6e2c d73c 1cff ef3d e583 d63d
00000370: 4ac6 27bd 972a e53d 73f1 b8bd 6cd4 28bd
00000380: 8a65 8bbb 6c95 963c 054b 3039 6012 333c
00000390: d68c 283e 0d1a 0f3e c9ae 7abd ff1a 003e
000003a0: aee5 913c 011b 023e f424 6cbc 6b83 d7bb
000003b0: 361e bc3d 1130 1b3e 17f4 93bd 37db 97bd
000003c0: 0e82 e7bc d628 a43d 62fd 983d b85d 163e
000003d0: bf55 b53d ffaa 3fbd 8769 37bc 6a5f ba3b
000003e0: 7271 3dbd 3cd7 dc38 050a c43c 4dce 90bd
000003f0: 4944 a83c effc fa3d 0de5 4c3d a3a5 a1bd
0.05428673 -0.006906124 0.17767774 0.04567588 -0.04504862 -0.030852072 0.049897924 0.0021598926
-0.06445229 -0.05288188 -0.04914469 -0.065068215 0.0267913 -0.027301775 0.09264592 -0.0016671815
0.1792222 -0.0128201395 -0.039774325 0.10788068 -0.015930511 -0.024607709 0.12141596 -0.0060083414
0.11226115 -0.056088522 -0.012338529 -0.012170014 0.1664408 -0.059015617 0.14001074 0.1311543
0.012461203 0.1044716 0.045217685 -0.041148137 -0.009093607 -0.10407086 -0.09054821 0.14791338
-0.090385504 0.11518571 -0.01643759 0.11246685 0.061355557 -0.06986766 0.016393328 0.02706218
0.033170305 0.18057297 -0.10490996 -0.08852435 0.00989352 -0.006418972 -0.07994953 -0.057174798
5.3744585e-05 -0.03575856 0.09429347 -0.0010788128 -0.035581484 -0.01665781 0.09310354 0.14603928
-0.01139813 0.0066758078 0.06903332 0.013736536 -0.068252325 -0.0915289 -0.044156484 0.13197483
0.06980758 -0.06928739 0.007162964 -0.010766876 -0.064649574 0.12477306 -0.065873526 0.0023229162
0.027444284 0.11310007 -0.022613607 -0.04634049 -0.088049024 0.11312619 -0.08810301 0.05072847
0.03429433 0.020279609 0.21352312 0.0050476226 0.10634978 -0.032279167 0.011146779 -0.00027206045
-0.09694641 0.01676089 -0.055531967 -0.006638091 0.06237269 0.09712959 0.22465977 -0.034553524
-0.022982866 0.045084216 -0.037255824 -0.05633443 0.0010635443 0.1513002 0.020058958 -0.01957235
-0.052114993 -0.04451027 -0.06798079 0.0018572437 0.048810072 -0.044406287 -0.03824638 0.026546909
0.053466808 -0.08649626 -0.0450124 -0.07592619 0.103282474 0.031677745 -0.023867222 -0.026676042
0.07790825 0.00619421 0.012822565 -0.095431216 -0.08158909 -0.08340193 -0.02944621 -0.042506967
-0.044074304 -0.0515966 -0.05186069 -0.029818647 -0.024140574 0.020680204 0.02405426 -0.052774128
-0.060509495 -0.061613522 0.09418792 -0.016421251 0.16107309 -0.0016727617 0.007034765 -0.02019991
-0.022894597 0.09842893 -0.06451953 0.044645593 -0.04656982 0.09992294 -0.042657726 0.078114875
-0.08063662 -0.067763835 0.0042685773 -0.076092586 0.14645624 -0.04194362 0.10087253 -0.10192771
0.029313007 -0.07334004 0.016699763 0.006107733 -0.096115135 -0.04373742 -0.09749633 -0.030296814
-0.06044092 -0.069471404 -0.077544995 -0.039826155 -0.028007647 0.07887659 -0.049662948 -0.0009667932
0.068777576 -0.057953052 -0.023453996 -0.055808023 -0.082756884 0.06497233 0.022124805 0.100254126
0.15065779 0.19525279 -0.04206311 -0.011549292 -0.08283104 0.15215494 0.10427903 0.037666604
0.16602075 -0.07454105 0.082526535 -0.031485055 0.103894606 -0.03526356 0.06789865 0.07416352
0.042902198 -0.061272595 0.047193132 0.1126721 0.18253337 0.10079768 -0.028875645 -0.054133005
0.1714197 0.026266303 0.1171858 0.10474376 -0.040960588 0.11189764 -0.09030428 -0.041218206
-0.0042540478 0.018381797 0.00016812615 0.010929674 0.16459975 0.13974781 -0.061201844 0.12510298
0.017809715 0.12705614 -0.014413107 -0.0065769455 0.0918545 0.15155055 -0.07224291 -0.07414859
-0.028260257 0.08015601 0.07470204 0.14684188 0.088542454 -0.046793934 -0.011194593 0.005687644
-0.046250768 0.00010530508 0.023930559 -0.07070599 0.020540373 0.122552745 0.050023127 -0.07892921

classifier.0.bias f4 [7]
00000000: caa9 0a3e 171a 2c3f b3f5 963e b721 a0be
00000010: 0944 78be 6d14 a0be e592 72be
0.13541332 0.6722731 0.2948433 -0.31275722 -0.24244703 -0.31265584 -0.23688848
